assets/photo-ocr/rpn_text_detector_mobile_space_to_depth_quantized_v2_nnapi.tflite (tflite, 94736 bytes, 20 tensors)

predictions/weights u1 [7, 1, 1, 64] scale=0.003861957 zero_point=137
0	0x9b	0.06951523
1	0x7e	-0.042481527
2	0x8a	0.003861957
3	0x7a	-0.057929356
4	0x7d	-0.046343483
5	0x7b	-0.0540674
6	0x7d	-0.046343483
7	0x7c	-0.05020544
8	0x8b	0.007723914
9	0x89	0.0
10	0x8c	0.011585871
11	0x8e	0.019309785
12	0x8f	0.023171742
13	0x7f	-0.03861957
14	0x9a	0.06565327
15	0x89	0.0
16	0x82	-0.0270337
17	0x7c	-0.05020544
18	0x99	0.061791312
19	0x7a	-0.057929356
20	0x86	-0.011585871
21	0x7b	-0.0540674
22	0x8e	0.019309785
23	0x8d	0.015447828
24	0x7b	-0.0540674
25	0x7c	-0.05020544
26	0x7c	-0.05020544
27	0x7b	-0.0540674
28	0x85	-0.015447828
29	0x91	0.030895656
30	0x7a	-0.057929356
31	0x9a	0.06565327
32	0x99	0.061791312
33	0x81	-0.030895656
34	0x9b	0.06951523
35	0x7e	-0.042481527
36	0x7a	-0.057929356
37	0x90	0.0270337
38	0x7f	-0.03861957
39	0x7a	-0.057929356
40	0x7c	-0.05020544
41	0x7d	-0.046343483
42	0x80	-0.034757614
43	0x7e	-0.042481527
44	0x88	-0.003861957
45	0x88	-0.003861957
46	0x7d	-0.046343483
47	0x7c	-0.05020544
48	0x88	-0.003861957
49	0x7f	-0.03861957
50	0x7c	-0.05020544
51	0x7c	-0.05020544
52	0x7b	-0.0540674
53	0x8b	0.007723914
54	0x94	0.042481527
55	0x7e	-0.042481527
56	0x7b	-0.0540674
57	0x7c	-0.05020544
58	0x7b	-0.0540674
59	0x82	-0.0270337
60	0x88	-0.003861957
61	0x83	-0.023171742
62	0x7c	-0.05020544
63	0x8b	0.007723914
64	0x8c	0.011585871
65	0x74	-0.0811011
66	0x85	-0.015447828
67	0x85	-0.015447828
68	0x8a	0.003861957
69	0x96	0.05020544
70	0x89	0.0
71	0x8a	0.003861957
72	0x85	-0.015447828
73	0x88	-0.003861957
74	0xdb	0.31668046
75	0x87	-0.007723914
76	0x85	-0.015447828
77	0x79	-0.061791312
78	0x8c	0.011585871
79	0x89	0.0
80	0x8f	0.023171742
81	0x88	-0.003861957
82	0xa2	0.09654892
83	0x8f	0.023171742
84	0x87	-0.007723914
85	0x81	-0.030895656
86	0x8c	0.011585871
87	0x8b	0.007723914
88	0x8d	0.015447828
89	0x8a	0.003861957
90	0x7f	-0.03861957
91	0x8e	0.019309785
92	0x8c	0.011585871
93	0x8c	0.011585871
94	0x7d	-0.046343483
95	0x79	-0.061791312
96	0xd6	0.2973707
97	0x79	-0.061791312
98	0x83	-0.023171742
99	0x90	0.0270337
100	0x8b	0.007723914
101	0x1a	-0.42867723
102	0x87	-0.007723914
103	0x96	0.05020544
104	0x8b	0.007723914
105	0x85	-0.015447828
106	0xc9	0.24716525
107	0xbb	0.19309784
108	0x86	-0.011585871
109	0x86	-0.011585871
110	0x8e	0.019309785
111	0x83	-0.023171742
112	0x83	-0.023171742
113	0x8a	0.003861957
114	0x84	-0.019309785
115	0x8a	0.003861957
116	0x87	-0.007723914
117	0x91	0.030895656
118	0x4c	-0.23557937
119	0x88	-0.003861957
120	0x80	-0.034757614
121	0x81	-0.030895656
122	0x76	-0.073377185
123	0x81	-0.030895656
124	0x8c	0.011585871
125	0x81	-0.030895656
126	0x83	-0.023171742
127	0x83	-0.023171742
128	0x8a	0.003861957
129	0x8c	0.011585871
130	0x91	0.030895656
131	0x89	0.0
132	0x7a	-0.057929356
133	0x8f	0.023171742
134	0x8c	0.011585871
135	0x94	0.042481527
136	0x8c	0.011585871
137	0x8b	0.007723914
138	0x88	-0.003861957
139	0x89	0.0
140	0x00	-0.5290881
141	0xf6	0.4209533
142	0x8a	0.003861957
143	0x92	0.034757614
144	0x80	-0.034757614
145	0x84	-0.019309785
146	0x8a	0.003861957
147	0x96	0.05020544
148	0x88	-0.003861957
149	0x7e	-0.042481527
150	0xff	0.45571092
151	0xe1	0.3398522
152	0x9b	0.06951523
153	0x7f	-0.03861957
154	0x87	-0.007723914
155	0x8f	0.023171742
156	0x8b	0.007723914
157	0xc3	0.22399351
158	0x90	0.0270337
159	0x87	-0.007723914
160	0x8a	0.003861957
161	0x8d	0.015447828
162	0x70	-0.09654892
163	0x91	0.030895656
164	0x83	-0.023171742
165	0x8f	0.023171742
166	0x9a	0.06565327
167	0x86	-0.011585871
168	0x83	-0.023171742
169	0x97	0.0540674
170	0x61	-0.15447828
171	0xa8	0.11972067
172	0xb1	0.15447828
173	0xa0	0.08882501
174	0x76	-0.073377185
175	0x8b	0.007723914
176	0x7f	-0.03861957
177	0x97	0.0540674
178	0x86	-0.011585871
179	0x8d	0.015447828
180	0x84	-0.019309785
181	0x8c	0.011585871
182	0x8d	0.015447828
183	0x9c	0.073377185
184	0x91	0.030895656
185	0x76	-0.073377185
186	0x83	-0.023171742
187	0x59	-0.18537393
188	0x24	-0.39005765
189	0x0f	-0.47115874
190	0x8e	0.019309785
191	0x77	-0.06951523
192	0x8b	0.007723914
193	0x86	-0.011585871
194	0x8b	0.007723914
195	0x88	-0.003861957
196	0x89	0.0
197	0x86	-0.011585871
198	0x8c	0.011585871
199	0x8a	0.003861957
200	0x8a	0.003861957
201	0x89	0.0
202	0x6d	-0.1081348
203	0x89	0.0
204	0x87	-0.007723914
205	0x89	0.0
206	0x8a	0.003861957
207	0x8a	0.003861957
208	0x8a	0.003861957
209	0x88	-0.003861957
210	0x89	0.0
211	0x89	0.0
212	0x8f	0.023171742
213	0x8d	0.015447828
214	0x8a	0.003861957
215	0x88	-0.003861957
216	0x8b	0.007723914
217	0x8a	0.003861957
218	0x89	0.0
219	0x8e	0.019309785
220	0x87	-0.007723914
221	0x8a	0.003861957
222	0x8c	0.011585871
223	0x89	0.0
224	0x8c	0.011585871
225	0x6d	-0.1081348
226	0x8b	0.007723914
227	0x89	0.0
228	0x84	-0.019309785
229	0x6d	-0.1081348
230	0x86	-0.011585871
231	0x82	-0.0270337
232	0x83	-0.023171742
233	0x8a	0.003861957
234	0x8c	0.011585871
235	0x89	0.0
236	0x81	-0.030895656
237	0x86	-0.011585871
238	0x89	0.0
239	0x8b	0.007723914
240	0x8b	0.007723914
241	0x8b	0.007723914
242	0x8d	0.015447828
243	0x8a	0.003861957
244	0x87	-0.007723914
245	0x89	0.0
246	0x91	0.030895656
247	0x88	-0.003861957
248	0x8b	0.007723914
249	0x8a	0.003861957
250	0x8a	0.003861957
251	0x81	-0.030895656
252	0x89	0.0
253	0x8a	0.003861957
254	0x87	-0.007723914
255	0x89	0.0

sconv1/depthwise_weights u1 [1, 3, 3, 256] scale=0.024238108 zero_point=129
0	0x81	0.0
1	0x81	0.0
2	0x7f	-0.048476215
3	0x81	0.0
4	0x81	0.0
5	0x80	-0.024238108
6	0x81	0.0
7	0x81	0.0
8	0x81	0.0
9	0x87	0.14542864
10	0x81	0.0
11	0x81	0.0
12	0x7c	-0.12119054
13	0x7e	-0.07271432
14	0x6c	-0.50900024
15	0x81	0.0
16	0x81	0.0
17	0x81	0.0
18	0x81	0.0
19	0x81	0.0
20	0x76	-0.26661918
21	0x81	0.0
22	0x81	0.0
23	0x8f	0.3393335
24	0x80	-0.024238108
25	0x81	0.0
26	0x81	0.0
27	0x81	0.0
28	0x79	-0.19390486
29	0x7a	-0.16966675
30	0x8b	0.24238108
31	0x81	0.0
32	0x80	-0.024238108
33	0x81	0.0
34	0x7d	-0.09695243
35	0x81	0.0
36	0x81	0.0
37	0x81	0.0
38	0x82	0.024238108
39	0x81	0.0
40	0x83	0.048476215
41	0x85	0.09695243
42	0x7d	-0.09695243
43	0x8a	0.21814297
44	0x82	0.024238108
45	0x8b	0.24238108
46	0x81	0.0
47	0x7f	-0.048476215
48	0x7c	-0.12119054
49	0x8d	0.2908573
50	0x82	0.024238108
51	0x7a	-0.16966675
52	0x85	0.09695243
53	0x7a	-0.16966675
54	0x6c	-0.50900024
55	0x7c	-0.12119054
56	0x81	0.0
57	0x7d	-0.09695243
58	0x88	0.16966675
59	0x86	0.12119054
60	0x81	0.0
61	0x82	0.024238108
62	0x8d	0.2908573
63	0x84	0.07271432
64	0x82	0.024238108
65	0x82	0.024238108
66	0x7f	-0.048476215
67	0x81	0.0
68	0x86	0.12119054
69	0x81	0.0
70	0x81	0.0
71	0x82	0.024238108
72	0x83	0.048476215
73	0x7a	-0.16966675
74	0x84	0.07271432
75	0x81	0.0
76	0x80	-0.024238108
77	0x83	0.048476215
78	0x81	0.0
79	0x81	0.0
80	0x80	-0.024238108
81	0x81	0.0
82	0x81	0.0
83	0x7c	-0.12119054
84	0x7f	-0.048476215
85	0x7d	-0.09695243
86	0x7f	-0.048476215
87	0x81	0.0
88	0x82	0.024238108
89	0x85	0.09695243
90	0x88	0.16966675
91	0x80	-0.024238108
92	0x7e	-0.07271432
93	0x7a	-0.16966675
94	0x88	0.16966675
95	0x7f	-0.048476215
96	0x81	0.0
97	0x81	0.0
98	0x81	0.0
99	0x81	0.0
100	0x86	0.12119054
101	0x9b	0.6301908
102	0x86	0.12119054
103	0x81	0.0
104	0x80	-0.024238108
105	0x7c	-0.12119054
106	0x80	-0.024238108
107	0x7f	-0.048476215
108	0x81	0.0
109	0x81	0.0
110	0x81	0.0
111	0x81	0.0
112	0x79	-0.19390486
113	0x81	0.0
114	0x81	0.0
115	0x81	0.0
116	0x7f	-0.048476215
117	0x81	0.0
118	0x81	0.0
119	0x80	-0.024238108
120	0x81	0.0
121	0x8a	0.21814297
122	0x82	0.024238108
123	0x81	0.0
124	0x82	0.024238108
125	0x81	0.0
126	0x82	0.024238108
127	0x73	-0.3393335
128	0x81	0.0
129	0x81	0.0
130	0x83	0.048476215
131	0x7b	-0.14542864
132	0x7a	-0.16966675
133	0x89	0.19390486
134	0x86	0.12119054
135	0x82	0.024238108
136	0x81	0.0
137	0x80	-0.024238108
138	0x81	0.0
139	0x7c	-0.12119054
140	0x87	0.14542864
141	0x80	-0.024238108
142	0x88	0.16966675
143	0x81	0.0
144	0x80	-0.024238108
145	0x83	0.048476215
146	0x81	0.0
147	0x81	0.0
148	0x83	0.048476215
149	0x81	0.0
150	0x7f	-0.048476215
151	0x82	0.024238108
152	0x81	0.0
153	0x81	0.0
154	0x81	0.0
155	0x82	0.024238108
156	0x7c	-0.12119054
157	0x7c	-0.12119054
158	0x81	0.0
159	0x7d	-0.09695243
160	0x81	0.0
161	0x7f	-0.048476215
162	0x80	-0.024238108
163	0x71	-0.38780972
164	0x80	-0.024238108
165	0x88	0.16966675
166	0x8c	0.26661918
167	0x81	0.0
168	0x81	0.0
169	0x80	-0.024238108
170	0x83	0.048476215
171	0x83	0.048476215
172	0x81	0.0
173	0x83	0.048476215
174	0x85	0.09695243
175	0x95	0.48476216
176	0x78	-0.21814297
177	0x86	0.12119054
178	0x88	0.16966675
179	0x80	-0.024238108
180	0x89	0.19390486
181	0x7e	-0.07271432
182	0x87	0.14542864
183	0x75	-0.2908573
184	0x80	-0.024238108
185	0x80	-0.024238108
186	0x7e	-0.07271432
187	0x7f	-0.048476215
188	0x80	-0.024238108
189	0x81	0.0
190	0x81	0.0
191	0x83	0.048476215
192	0x81	0.0
193	0x80	-0.024238108
194	0x79	-0.19390486
195	0x79	-0.19390486
196	0x88	0.16966675
197	0x7e	-0.07271432
198	0x84	0.07271432
199	0x81	0.0
200	0x8a	0.21814297
201	0x80	-0.024238108
202	0x81	0.0
203	0x83	0.048476215
204	0x85	0.09695243
205	0x81	0.0
206	0x81	0.0
207	0x73	-0.3393335
208	0x81	0.0
209	0x81	0.0
210	0x87	0.14542864
211	0x7e	-0.07271432
212	0x84	0.07271432
213	0x8a	0.21814297
214	0x6d	-0.48476216
215	0x89	0.19390486
216	0x81	0.0
217	0x82	0.024238108
218	0x74	-0.3150954
219	0x85	0.09695243
220	0x83	0.048476215
221	0x7f	-0.048476215
222	0x81	0.0
223	0x8b	0.24238108
224	0x82	0.024238108
225	0x93	0.43628594
226	0x81	0.0
227	0x7c	-0.12119054
228	0x81	0.0
229	0x7b	-0.14542864
230	0x81	0.0
231	0x87	0.14542864
232	0x8e	0.3150954
233	0x81	0.0
234	0x81	0.0
235	0x81	0.0
236	0x80	-0.024238108
237	0x7f	-0.048476215
238	0x7f	-0.048476215
239	0x89	0.19390486
240	0x81	0.0
241	0x7e	-0.07271432
242	0x84	0.07271432
243	0x81	0.0
244	0x8d	0.2908573
245	0x81	0.0
246	0x7f	-0.048476215
247	0x81	0.0
248	0x81	0.0
249	0x80	-0.024238108
250	0x81	0.0
251	0x81	0.0
252	0x80	-0.024238108
253	0x84	0.07271432
254	0x7a	-0.16966675
255	0x81	0.0

sconv1_pointwise/weights u1 [128, 1, 1, 256] scale=0.015014802 zero_point=141
0	0x88	-0.07507401
1	0x8b	-0.030029604
2	0x8f	0.030029604
3	0x8f	0.030029604
4	0x8f	0.030029604
5	0x92	0.07507401
6	0x8f	0.030029604
7	0x90	0.045044407
8	0x8e	0.015014802
9	0x89	-0.06005921
10	0x8d	0.0
11	0x8e	0.015014802
12	0x8b	-0.030029604
13	0x89	-0.06005921
14	0x8f	0.030029604
15	0x8e	0.015014802
16	0x8d	0.0
17	0x8e	0.015014802
18	0x8e	0.015014802
19	0x8c	-0.015014802
20	0x8d	0.0
21	0x89	-0.06005921
22	0x8a	-0.045044407
23	0x8a	-0.045044407
24	0x8b	-0.030029604
25	0x8f	0.030029604
26	0x92	0.07507401
27	0x8a	-0.045044407
28	0x8e	0.015014802
29	0x90	0.045044407
30	0x8e	0.015014802
31	0x85	-0.12011842
32	0x8d	0.0
33	0x8b	-0.030029604
34	0x8b	-0.030029604
35	0x8f	0.030029604
36	0x86	-0.10510361
37	0x8a	-0.045044407
38	0x8e	0.015014802
39	0x94	0.10510361
40	0x8e	0.015014802
41	0x8e	0.015014802
42	0x8e	0.015014802
43	0x8f	0.030029604
44	0x8c	-0.015014802
45	0x85	-0.12011842
46	0x8c	-0.015014802
47	0x8e	0.015014802
48	0x8c	-0.015014802
49	0x89	-0.06005921
50	0x8d	0.0
51	0x8a	-0.045044407
52	0x8b	-0.030029604
53	0x90	0.045044407
54	0x8a	-0.045044407
55	0x8d	0.0
56	0x8c	-0.015014802
57	0x8e	0.015014802
58	0x8d	0.0
59	0x8c	-0.015014802
60	0x8e	0.015014802
61	0x8a	-0.045044407
62	0x90	0.045044407
63	0x80	-0.19519243
64	0x8d	0.0
65	0x8e	0.015014802
66	0x90	0.045044407
67	0x90	0.045044407
68	0x89	-0.06005921
69	0x84	-0.13513322
70	0x90	0.045044407
71	0x89	-0.06005921
72	0x91	0.06005921
73	0x8a	-0.045044407
74	0x8f	0.030029604
75	0x8c	-0.015014802
76	0x8c	-0.015014802
77	0x95	0.12011842
78	0x88	-0.07507401
79	0x89	-0.06005921
80	0x8b	-0.030029604
81	0x88	-0.07507401
82	0x8e	0.015014802
83	0x8f	0.030029604
84	0x86	-0.10510361
85	0x8f	0.030029604
86	0x96	0.13513322
87	0x92	0.07507401
88	0x86	-0.10510361
89	0x8d	0.0
90	0x90	0.045044407
91	0x8e	0.015014802
92	0x8d	0.0
93	0x8f	0.030029604
94	0x81	-0.18017763
95	0x7e	-0.22522204
96	0x8f	0.030029604
97	0x82	-0.16516282
98	0x8a	-0.045044407
99	0x8c	-0.015014802
100	0x8c	-0.015014802
101	0x8b	-0.030029604
102	0x8b	-0.030029604
103	0x94	0.10510361
104	0x8e	0.015014802
105	0x8e	0.015014802
106	0x8e	0.015014802
107	0x8b	-0.030029604
108	0x8e	0.015014802
109	0x8d	0.0
110	0x8d	0.0
111	0x80	-0.19519243
112	0x91	0.06005921
113	0x8f	0.030029604
114	0x90	0.045044407
115	0x89	-0.06005921
116	0x8f	0.030029604
117	0x8b	-0.030029604
118	0x8a	-0.045044407
119	0x8b	-0.030029604
120	0x8c	-0.015014802
121	0x8f	0.030029604
122	0x8a	-0.045044407
123	0x8d	0.0
124	0x8c	-0.015014802
125	0x8c	-0.015014802
126	0x99	0.18017763
127	0x8c	-0.015014802
128	0x7f	-0.21020722
129	0x8e	0.015014802
130	0x8e	0.015014802
131	0x8d	0.0
132	0x8e	0.015014802
133	0x8d	0.0
134	0x8f	0.030029604
135	0x91	0.06005921
136	0x8c	-0.015014802
137	0x8d	0.0
138	0x8f	0.030029604
139	0x8d	0.0
140	0x90	0.045044407
141	0x8c	-0.015014802
142	0x85	-0.12011842
143	0x8e	0.015014802
144	0x7a	-0.28528124
145	0x97	0.15014802
146	0x8f	0.030029604
147	0x8d	0.0
148	0x8e	0.015014802
149	0x8b	-0.030029604
150	0x8d	0.0
151	0x8c	-0.015014802
152	0x90	0.045044407
153	0x89	-0.06005921
154	0x8d	0.0
155	0x89	-0.06005921
156	0x8d	0.0
157	0x8d	0.0
158	0x8b	-0.030029604
159	0x8c	-0.015014802
160	0x82	-0.16516282
161	0x86	-0.10510361
162	0x84	-0.13513322
163	0x8e	0.015014802
164	0x8d	0.0
165	0x8e	0.015014802
166	0x90	0.045044407
167	0x8f	0.030029604
168	0x90	0.045044407
169	0x8c	-0.015014802
170	0x8f	0.030029604
171	0x90	0.045044407
172	0x90	0.045044407
173	0x8e	0.015014802
174	0x90	0.045044407
175	0x80	-0.19519243
176	0x8f	0.030029604
177	0x8c	-0.015014802
178	0x8d	0.0
179	0x88	-0.07507401
180	0x8d	0.0
181	0x8d	0.0
182	0x8b	-0.030029604
183	0x8c	-0.015014802
184	0x8d	0.0
185	0x8b	-0.030029604
186	0x90	0.045044407
187	0x8d	0.0
188	0x8f	0.030029604
189	0x8d	0.0
190	0x8d	0.0
191	0x8d	0.0
192	0x8d	0.0
193	0x90	0.045044407
194	0x8e	0.015014802
195	0x8d	0.0
196	0x89	-0.06005921
197	0x8c	-0.015014802
198	0x8b	-0.030029604
199	0x8e	0.015014802
200	0x8d	0.0
201	0x93	0.090088814
202	0x8c	-0.015014802
203	0x87	-0.090088814
204	0x90	0.045044407
205	0x89	-0.06005921
206	0x8b	-0.030029604
207	0x95	0.12011842
208	0x8e	0.015014802
209	0x84	-0.13513322
210	0x8d	0.0
211	0x89	-0.06005921
212	0x8c	-0.015014802
213	0x8e	0.015014802
214	0x8f	0.030029604
215	0x8d	0.0
216	0x8f	0.030029604
217	0x8c	-0.015014802
218	0x8d	0.0
219	0x88	-0.07507401
220	0x8f	0.030029604
221	0x8c	-0.015014802
222	0x8c	-0.015014802
223	0x9c	0.22522204
224	0x8c	-0.015014802
225	0x81	-0.18017763
226	0x8b	-0.030029604
227	0x89	-0.06005921
228	0x8f	0.030029604
229	0x8b	-0.030029604
230	0x8e	0.015014802
231	0x8e	0.015014802
232	0x8e	0.015014802
233	0x8a	-0.045044407
234	0x8d	0.0
235	0x8d	0.0
236	0x8d	0.0
237	0x8f	0.030029604
238	0x8c	-0.015014802
239	0x8f	0.030029604
240	0x8a	-0.045044407
241	0x8c	-0.015014802
242	0x8f	0.030029604
243	0x90	0.045044407
244	0x8c	-0.015014802
245	0x8b	-0.030029604
246	0x93	0.090088814
247	0x89	-0.06005921
248	0x8d	0.0
249	0x90	0.045044407
250	0x91	0.06005921
251	0x8c	-0.015014802
252	0x88	-0.07507401
253	0x94	0.10510361
254	0x8d	0.0
255	0x88	-0.07507401

sconv2/depthwise_weights u1 [1, 3, 3, 128] scale=0.025946656 zero_point=119
0	0x76	-0.025946656
1	0x76	-0.025946656
2	0x6c	-0.2854132
3	0x79	0.051893312
4	0x6a	-0.33730653
5	0x77	0.0
6	0x77	0.0
7	0x76	-0.025946656
8	0x72	-0.12973328
9	0x92	0.70055974
10	0x77	0.0
11	0x77	0.0
12	0x78	0.025946656
13	0x76	-0.025946656
14	0x6a	-0.33730653
15	0x76	-0.025946656
16	0x77	0.0
17	0x75	-0.051893312
18	0x77	0.0
19	0x76	-0.025946656
20	0x78	0.025946656
21	0x70	-0.18162659
22	0x75	-0.051893312
23	0x58	-0.8043463
24	0x7a	0.07783997
25	0x77	0.0
26	0x6e	-0.23351991
27	0x76	-0.025946656
28	0x76	-0.025946656
29	0x77	0.0
30	0x76	-0.025946656
31	0x76	-0.025946656
32	0x77	0.0
33	0x7c	0.12973328
34	0x70	-0.18162659
35	0x77	0.0
36	0x77	0.0
37	0x77	0.0
38	0x74	-0.07783997
39	0x63	-0.5189331
40	0x73	-0.103786625
41	0x78	0.025946656
42	0x77	0.0
43	0x77	0.0
44	0x71	-0.15567994
45	0x76	-0.025946656
46	0x77	0.0
47	0x76	-0.025946656
48	0x74	-0.07783997
49	0x75	-0.051893312
50	0x81	0.25946656
51	0x76	-0.025946656
52	0x77	0.0
53	0x76	-0.025946656
54	0x77	0.0
55	0x7b	0.103786625
56	0x77	0.0
57	0x77	0.0
58	0x78	0.025946656
59	0x77	0.0
60	0x96	0.8043463
61	0x78	0.025946656
62	0x75	-0.051893312
63	0x76	-0.025946656
64	0x76	-0.025946656
65	0x7e	0.18162659
66	0x84	0.33730653
67	0x77	0.0
68	0x76	-0.025946656
69	0x7b	0.103786625
70	0x76	-0.025946656
71	0x78	0.025946656
72	0x82	0.2854132
73	0x76	-0.025946656
74	0x77	0.0
75	0x77	0.0
76	0x76	-0.025946656
77	0x7a	0.07783997
78	0x76	-0.025946656
79	0x71	-0.15567994
80	0x76	-0.025946656
81	0x77	0.0
82	0x77	0.0
83	0x78	0.025946656
84	0x77	0.0
85	0x76	-0.025946656
86	0x77	0.0
87	0x7f	0.20757325
88	0x77	0.0
89	0x76	-0.025946656
90	0x76	-0.025946656
91	0x77	0.0
92	0x75	-0.051893312
93	0x77	0.0
94	0x76	-0.025946656
95	0x77	0.0
96	0x76	-0.025946656
97	0x76	-0.025946656
98	0x77	0.0
99	0x7b	0.103786625
100	0x78	0.025946656
101	0x75	-0.051893312
102	0x76	-0.025946656
103	0x77	0.0
104	0x79	0.051893312
105	0x77	0.0
106	0x80	0.23351991
107	0x7c	0.12973328
108	0x77	0.0
109	0x75	-0.051893312
110	0x76	-0.025946656
111	0x7c	0.12973328
112	0x76	-0.025946656
113	0x75	-0.051893312
114	0x76	-0.025946656
115	0x7d	0.15567994
116	0x77	0.0
117	0x66	-0.44109315
118	0x71	-0.15567994
119	0x72	-0.12973328
120	0x77	0.0
121	0x98	0.8562397
122	0x76	-0.025946656
123	0x6d	-0.25946656
124	0x74	-0.07783997
125	0x76	-0.025946656
126	0x77	0.0
127	0x77	0.0
128	0x74	-0.07783997
129	0x76	-0.025946656
130	0x62	-0.5448798
131	0x78	0.025946656
132	0x35	-1.7124794
133	0x75	-0.051893312
134	0x74	-0.07783997
135	0x80	0.23351991
136	0x78	0.025946656
137	0x4f	-1.0378662
138	0x77	0.0
139	0x77	0.0
140	0x78	0.025946656
141	0x76	-0.025946656
142	0x7e	0.18162659
143	0x77	0.0
144	0x7d	0.15567994
145	0x50	-1.0119196
146	0x76	-0.025946656
147	0x75	-0.051893312
148	0x6a	-0.33730653
149	0x63	-0.5189331
150	0x71	-0.15567994
151	0x64	-0.49298647
152	0x82	0.2854132
153	0x79	0.051893312
154	0x60	-0.5967731
155	0x75	-0.051893312
156	0x75	-0.051893312
157	0x78	0.025946656
158	0x75	-0.051893312
159	0x75	-0.051893312
160	0x77	0.0
161	0x82	0.2854132
162	0x75	-0.051893312
163	0x75	-0.051893312
164	0x77	0.0
165	0x76	-0.025946656
166	0x79	0.051893312
167	0x8c	0.5448798
168	0x78	0.025946656
169	0x74	-0.07783997
170	0x77	0.0
171	0x77	0.0
172	0x7c	0.12973328
173	0x74	-0.07783997
174	0x78	0.025946656
175	0x75	-0.051893312
176	0x71	-0.15567994
177	0x75	-0.051893312
178	0x6f	-0.20757325
179	0x75	-0.051893312
180	0x77	0.0
181	0x75	-0.051893312
182	0x76	-0.025946656
183	0x7f	0.20757325
184	0x72	-0.12973328
185	0x76	-0.025946656
186	0x72	-0.12973328
187	0x77	0.0
188	0x72	-0.12973328
189	0x79	0.051893312
190	0x6a	-0.33730653
191	0x77	0.0
192	0x75	-0.051893312
193	0xd6	2.4649324
194	0x90	0.6486664
195	0x77	0.0
196	0x77	0.0
197	0x75	-0.051893312
198	0x75	-0.051893312
199	0x77	0.0
200	0x70	-0.18162659
201	0x77	0.0
202	0x77	0.0
203	0x77	0.0
204	0x76	-0.025946656
205	0x91	0.67461306
206	0x73	-0.103786625
207	0x82	0.2854132
208	0x73	-0.103786625
209	0x75	-0.051893312
210	0x77	0.0
211	0x7f	0.20757325
212	0x77	0.0
213	0x75	-0.051893312
214	0x77	0.0
215	0x8a	0.49298647
216	0x76	-0.025946656
217	0x76	-0.025946656
218	0x76	-0.025946656
219	0x78	0.025946656
220	0x74	-0.07783997
221	0x77	0.0
222	0x79	0.051893312
223	0x7c	0.12973328
224	0x75	-0.051893312
225	0x77	0.0
226	0x75	-0.051893312
227	0x99	0.8821863
228	0x7a	0.07783997
229	0x75	-0.051893312
230	0x77	0.0
231	0x77	0.0
232	0x73	-0.103786625
233	0x75	-0.051893312
234	0x8a	0.49298647
235	0x88	0.44109315
236	0x75	-0.051893312
237	0x75	-0.051893312
238	0x76	-0.025946656
239	0x81	0.25946656
240	0x75	-0.051893312
241	0x76	-0.025946656
242	0x77	0.0
243	0x87	0.4151465
244	0x75	-0.051893312
245	0x7f	0.20757325
246	0x79	0.051893312
247	0x88	0.44109315
248	0x77	0.0
249	0x88	0.44109315
250	0x77	0.0
251	0x70	-0.18162659
252	0xad	1.4011195
253	0x76	-0.025946656
254	0x75	-0.051893312
255	0x77	0.0

sconv2_pointwise/weights u1 [64, 1, 1, 128] scale=0.008371228 zero_point=136
0	0x7d	-0.092083514
1	0xa7	0.25950807
2	0x88	0.0
3	0x8b	0.025113685
4	0x87	-0.008371228
5	0x8f	0.0585986
6	0x83	-0.04185614
7	0x84	-0.033484913
8	0x88	0.0
9	0x88	0.0
10	0x84	-0.033484913
11	0x80	-0.06696983
12	0x8a	0.016742457
13	0x86	-0.016742457
14	0x88	0.0
15	0x7b	-0.10882597
16	0x8a	0.016742457
17	0x85	-0.025113685
18	0x8c	0.033484913
19	0x42	-0.58598596
20	0x89	0.008371228
21	0x99	0.14231089
22	0x95	0.10882597
23	0x86	-0.016742457
24	0x89	0.008371228
25	0x89	0.008371228
26	0x8c	0.033484913
27	0x8c	0.033484913
28	0x37	-0.6780695
29	0x87	-0.008371228
30	0x85	-0.025113685
31	0x4b	-0.5106449
32	0x88	0.0
33	0x91	0.07534105
34	0x83	-0.04185614
35	0x86	-0.016742457
36	0x87	-0.008371228
37	0x8f	0.0585986
38	0x7e	-0.08371228
39	0x8d	0.04185614
40	0x80	-0.06696983
41	0x86	-0.016742457
42	0x66	-0.28462178
43	0x7d	-0.092083514
44	0x8d	0.04185614
45	0x8a	0.016742457
46	0x8e	0.05022737
47	0x9f	0.19253825
48	0x82	-0.05022737
49	0x3e	-0.6194709
50	0x88	0.0
51	0x59	-0.39344773
52	0x84	-0.033484913
53	0xa4	0.2343944
54	0x7e	-0.08371228
55	0x72	-0.18416703
56	0x85	-0.025113685
57	0x92	0.08371228
58	0x86	-0.016742457
59	0x89	0.008371228
60	0x8a	0.016742457
61	0x97	0.12556842
62	0x87	-0.008371228
63	0x97	0.12556842
64	0x54	-0.43530387
65	0x87	-0.008371228
66	0x89	0.008371228
67	0x88	0.0
68	0x5b	-0.3767053
69	0x78	-0.13393965
70	0x8c	0.033484913
71	0x8b	0.025113685
72	0x8a	0.016742457
73	0x92	0.08371228
74	0x8a	0.016742457
75	0x84	-0.033484913
76	0xa7	0.25950807
77	0x8f	0.0585986
78	0x89	0.008371228
79	0x8b	0.025113685
80	0x7b	-0.10882597
81	0x88	0.0
82	0x88	0.0
83	0x81	-0.0585986
84	0x82	-0.05022737
85	0x95	0.10882597
86	0x87	-0.008371228
87	0x7b	-0.10882597
88	0x8e	0.05022737
89	0x7f	-0.07534105
90	0x82	-0.05022737
91	0x7b	-0.10882597
92	0x95	0.10882597
93	0x8d	0.04185614
94	0x82	-0.05022737
95	0x93	0.092083514
96	0xa0	0.20090948
97	0x94	0.10045474
98	0x88	0.0
99	0x86	-0.016742457
100	0x7f	-0.07534105
101	0x4f	-0.47716
102	0x8b	0.025113685
103	0x83	-0.04185614
104	0x8e	0.05022737
105	0x88	0.0
106	0x82	-0.05022737
107	0x89	0.008371228
108	0x88	0.0
109	0x44	-0.56924355
110	0x98	0.13393965
111	0x8c	0.033484913
112	0xa2	0.21765193
113	0x8e	0.05022737
114	0x8b	0.025113685
115	0x8b	0.025113685
116	0x97	0.12556842
117	0x84	-0.033484913
118	0x7f	-0.07534105
119	0x84	-0.033484913
120	0x8c	0.033484913
121	0x88	0.0
122	0x84	-0.033484913
123	0x89	0.008371228
124	0x90	0.06696983
125	0x7d	-0.092083514
126	0x7d	-0.092083514
127	0x8a	0.016742457
128	0x83	-0.04185614
129	0x84	-0.033484913
130	0x8a	0.016742457
131	0x7b	-0.10882597
132	0x86	-0.016742457
133	0x8d	0.04185614
134	0x88	0.0
135	0x82	-0.05022737
136	0x84	-0.033484913
137	0x8d	0.04185614
138	0x8a	0.016742457
139	0xc1	0.47716
140	0x85	-0.025113685
141	0x8a	0.016742457
142	0x6d	-0.22602317
143	0x92	0.08371228
144	0x86	-0.016742457
145	0x8e	0.05022737
146	0x89	0.008371228
147	0x58	-0.40181896
148	0x80	-0.06696983
149	0x84	-0.033484913
150	0x8c	0.033484913
151	0x8d	0.04185614
152	0x9d	0.1757958
153	0x7f	-0.07534105
154	0x8e	0.05022737
155	0x86	-0.016742457
156	0x7d	-0.092083514
157	0x8a	0.016742457
158	0x87	-0.008371228
159	0x7b	-0.10882597
160	0xa4	0.2343944
161	0x90	0.06696983
162	0x90	0.06696983
163	0x8f	0.0585986
164	0x9a	0.1506821
165	0xb5	0.3767053
166	0x82	-0.05022737
167	0x82	-0.05022737
168	0x86	-0.016742457
169	0x9b	0.15905334
170	0x83	-0.04185614
171	0x7e	-0.08371228
172	0x86	-0.016742457
173	0x93	0.092083514
174	0x80	-0.06696983
175	0xa0	0.20090948
176	0x6d	-0.22602317
177	0x67	-0.27625054
178	0x87	-0.008371228
179	0x7a	-0.1171972
180	0xa6	0.25113684
181	0x6b	-0.24276562
182	0x86	-0.016742457
183	0x92	0.08371228
184	0x8f	0.0585986
185	0xae	0.31810668
186	0x8e	0.05022737
187	0x8d	0.04185614
188	0x84	-0.033484913
189	0x85	-0.025113685
190	0x78	-0.13393965
191	0x5a	-0.3850765
192	0x5b	-0.3767053
193	0x86	-0.016742457
194	0x86	-0.016742457
195	0x97	0.12556842
196	0x6a	-0.25113684
197	0x87	-0.008371228
198	0x86	-0.016742457
199	0x8c	0.033484913
200	0x89	0.008371228
201	0x5f	-0.34322035
202	0x8c	0.033484913
203	0x8b	0.025113685
204	0x7e	-0.08371228
205	0x71	-0.19253825
206	0x7f	-0.07534105
207	0x66	-0.28462178
208	0x7e	-0.08371228
209	0x8c	0.033484913
210	0x9a	0.1506821
211	0x8f	0.0585986
212	0xd4	0.63621336
213	0x81	-0.0585986
214	0x8a	0.016742457
215	0x94	0.10045474
216	0x91	0.07534105
217	0x92	0.08371228
218	0x91	0.07534105
219	0x89	0.008371228
220	0x8b	0.025113685
221	0xab	0.29299298
222	0x7a	-0.1171972
223	0x84	-0.033484913
224	0x5b	-0.3767053
225	0x8a	0.016742457
226	0x8c	0.033484913
227	0xb8	0.40181896
228	0x71	-0.19253825
229	0x6e	-0.21765193
230	0x7b	-0.10882597
231	0x93	0.092083514
232	0x8d	0.04185614
233	0x8a	0.016742457
234	0x83	-0.04185614
235	0xc9	0.54412985
236	0x95	0.10882597
237	0x68	-0.2678793
238	0x4f	-0.47716
239	0x90	0.06696983
240	0x6c	-0.2343944
241	0x8e	0.05022737
242	0x7b	-0.10882597
243	0xd5	0.6445846
244	0x74	-0.16742456
245	0x8d	0.04185614
246	0x8b	0.025113685
247	0x7e	-0.08371228
248	0x73	-0.1757958
249	0x8a	0.016742457
250	0x9b	0.15905334
251	0x81	-0.0585986
252	0x82	-0.05022737
253	0x80	-0.06696983
254	0x8a	0.016742457
255	0xbd	0.4436751

sconv3/depthwise_weights u1 [1, 3, 3, 64] scale=0.028836373 zero_point=159
0	0xa2	0.08650912
1	0x9a	-0.14418186
2	0xa5	0.17301825
3	0x9f	0.0
4	0xa0	0.028836373
5	0xa0	0.028836373
6	0xa8	0.25952736
7	0x9c	-0.08650912
8	0xa0	0.028836373
9	0x9b	-0.11534549
10	0xa0	0.028836373
11	0x9f	0.0
12	0xb3	0.57672745
13	0x97	-0.23069099
14	0xa6	0.20185462
15	0x9f	0.0
16	0xa2	0.08650912
17	0x9e	-0.028836373
18	0x94	-0.3172001
19	0xa0	0.028836373
20	0xa0	0.028836373
21	0xa0	0.028836373
22	0x9f	0.0
23	0x9e	-0.028836373
24	0xac	0.37487286
25	0x9c	-0.08650912
26	0xa2	0.08650912
27	0x9f	0.0
28	0xa0	0.028836373
29	0x9d	-0.057672746
30	0x9c	-0.08650912
31	0x9f	0.0
32	0x9f	0.0
33	0xb6	0.66323656
34	0xa2	0.08650912
35	0xa2	0.08650912
36	0x9f	0.0
37	0x9c	-0.08650912
38	0x9c	-0.08650912
39	0x9e	-0.028836373
40	0xa9	0.28836372
41	0x9e	-0.028836373
42	0x9f	0.0
43	0xc2	1.009273
44	0xa0	0.028836373
45	0xa2	0.08650912
46	0xa3	0.11534549
47	0x9f	0.0
48	0x9d	-0.057672746
49	0xa5	0.17301825
50	0x9e	-0.028836373
51	0x9f	0.0
52	0xac	0.37487286
53	0xa3	0.11534549
54	0x9f	0.0
55	0xb5	0.6344002
56	0xa0	0.028836373
57	0x9f	0.0
58	0x9f	0.0
59	0xa0	0.028836373
60	0xa4	0.14418186
61	0xa0	0.028836373
62	0x9f	0.0
63	0x9f	0.0
64	0x9f	0.0
65	0x9a	-0.14418186
66	0xa2	0.08650912
67	0xa1	0.057672746
68	0x94	-0.3172001
69	0xa1	0.057672746
70	0xb1	0.5190547
71	0x9f	0.0
72	0xa0	0.028836373
73	0xa3	0.11534549
74	0x9f	0.0
75	0xa2	0.08650912
76	0xff	2.768292
77	0x9a	-0.14418186
78	0x9e	-0.028836373
79	0x9e	-0.028836373
80	0xa3	0.11534549
81	0xa4	0.14418186
82	0x98	-0.20185462
83	0x9e	-0.028836373
84	0x99	-0.17301825
85	0x9c	-0.08650912
86	0x9e	-0.028836373
87	0x9c	-0.08650912
88	0xa1	0.057672746
89	0xa0	0.028836373
90	0xa1	0.057672746
91	0xa0	0.028836373
92	0xa1	0.057672746
93	0xa6	0.20185462
94	0x95	-0.28836372
95	0x9e	-0.028836373
96	0x9e	-0.028836373
97	0x35	-3.0566556
98	0xa0	0.028836373
99	0xa2	0.08650912
100	0x9f	0.0
101	0xa0	0.028836373
102	0xa0	0.028836373
103	0x9f	0.0
104	0xaa	0.3172001
105	0x9d	-0.057672746
106	0x9f	0.0
107	0xc4	1.0669458
108	0xa0	0.028836373
109	0xa2	0.08650912
110	0xa1	0.057672746
111	0xa0	0.028836373
112	0x93	-0.3460365
113	0x97	-0.23069099
114	0x9f	0.0
115	0xa1	0.057672746
116	0xb4	0.6055638
117	0xa3	0.11534549
118	0xa0	0.028836373
119	0xbf	0.92276394
120	0xa0	0.028836373
121	0xa4	0.14418186
122	0xa0	0.028836373
123	0xa0	0.028836373
124	0xa1	0.057672746
125	0xa2	0.08650912
126	0x9b	-0.11534549
127	0x9e	-0.028836373
128	0xa5	0.17301825
129	0x9a	-0.14418186
130	0x96	-0.25952736
131	0x9f	0.0
132	0xa0	0.028836373
133	0x9f	0.0
134	0xa8	0.25952736
135	0xa6	0.20185462
136	0xa1	0.057672746
137	0x9f	0.0
138	0x9c	-0.08650912
139	0x9f	0.0
140	0xb2	0.5478911
141	0x92	-0.37487286
142	0xa3	0.11534549
143	0x9f	0.0
144	0xa3	0.11534549
145	0x9c	-0.08650912
146	0x8f	-0.46138197
147	0xa0	0.028836373
148	0x99	-0.17301825
149	0xa1	0.057672746
150	0x9e	-0.028836373
151	0x9f	0.0
152	0x8d	-0.5190547
153	0x9d	-0.057672746
154	0xa4	0.14418186
155	0x9f	0.0
156	0xa1	0.057672746
157	0xa3	0.11534549
158	0x9f	0.0
159	0x9f	0.0
160	0x9e	-0.028836373
161	0xb7	0.692073
162	0xa0	0.028836373
163	0x9f	0.0
164	0x9f	0.0
165	0x9b	-0.11534549
166	0x9f	0.0
167	0x9d	-0.057672746
168	0xa8	0.25952736
169	0x9e	-0.028836373
170	0xa0	0.028836373
171	0xb9	0.7497457
172	0xa3	0.11534549
173	0x9b	-0.11534549
174	0x9d	-0.057672746
175	0xa0	0.028836373
176	0x99	-0.17301825
177	0xa2	0.08650912
178	0x9e	-0.028836373
179	0xa3	0.11534549
180	0xad	0.40370923
181	0xa0	0.028836373
182	0x9e	-0.028836373
183	0xaa	0.3172001
184	0x9f	0.0
185	0x9e	-0.028836373
186	0x9e	-0.028836373
187	0xa0	0.028836373
188	0xa4	0.14418186
189	0xa1	0.057672746
190	0xa0	0.028836373
191	0x9e	-0.028836373
192	0xa1	0.057672746
193	0x98	-0.20185462
194	0xb9	0.7497457
195	0xa4	0.14418186
196	0x9e	-0.028836373
197	0xa0	0.028836373
198	0xc2	1.009273
199	0x95	-0.28836372
200	0xa9	0.28836372
201	0xa9	0.28836372
202	0x8f	-0.46138197
203	0xa4	0.14418186
204	0x95	-0.28836372
205	0x82	-0.83625484
206	0xa2	0.08650912
207	0xa1	0.057672746
208	0xa6	0.20185462
209	0x9e	-0.028836373
210	0x8f	-0.46138197
211	0xa3	0.11534549
212	0x92	-0.37487286
213	0xa0	0.028836373
214	0x9d	-0.057672746
215	0x9b	-0.11534549
216	0xbd	0.8650912
217	0xbb	0.80741847
218	0xa1	0.057672746
219	0x98	-0.20185462
220	0xa4	0.14418186
221	0xa2	0.08650912
222	0x88	-0.66323656
223	0xa1	0.057672746
224	0xa2	0.08650912
225	0xa2	0.08650912
226	0x98	-0.20185462
227	0xa6	0.20185462
228	0x98	-0.20185462
229	0x9d	-0.057672746
230	0xa9	0.28836372
231	0x9e	-0.028836373
232	0xa3	0.11534549
233	0x96	-0.25952736
234	0xa3	0.11534549
235	0xa5	0.17301825
236	0xa5	0.17301825
237	0x99	-0.17301825
238	0x9f	0.0
239	0xa0	0.028836373
240	0x93	-0.3460365
241	0xba	0.7785821
242	0x9d	-0.057672746
243	0xa1	0.057672746
244	0xa7	0.23069099
245	0x78	-1.1246185
246	0x98	-0.20185462
247	0xd5	1.5571642
248	0x9f	0.0
249	0xa5	0.17301825
250	0xa6	0.20185462
251	0xa6	0.20185462
252	0xa3	0.11534549
253	0xa5	0.17301825
254	0x9d	-0.057672746
255	0x9a	-0.14418186

sconv3_pointwise/weights u1 [64, 1, 1, 64] scale=0.007814276 zero_point=139
0	0x94	0.07032848
1	0x92	0.05469993
2	0x97	0.09377131
3	0x95	0.07814276
4	0x80	-0.085957035
5	0x8f	0.031257104
6	0x8e	0.023442827
7	0x8d	0.015628552
8	0x92	0.05469993
9	0x87	-0.031257104
10	0x95	0.07814276
11	0x85	-0.046885654
12	0x90	0.03907138
13	0x87	-0.031257104
14	0x8b	0.0
15	0x8c	0.007814276
16	0x8e	0.023442827
17	0x89	-0.015628552
18	0x90	0.03907138
19	0x78	-0.14847125
20	0x89	-0.015628552
21	0x9e	0.14847125
22	0x9b	0.12502842
23	0x8a	-0.007814276
24	0x8f	0.031257104
25	0x91	0.046885654
26	0x8d	0.015628552
27	0x7d	-0.10939986
28	0x87	-0.031257104
29	0x86	-0.03907138
30	0x89	-0.015628552
31	0x93	0.06251421
32	0x8d	0.015628552
33	0x93	0.06251421
34	0x90	0.03907138
35	0x8c	0.007814276
36	0x90	0.03907138
37	0x89	-0.015628552
38	0x95	0.07814276
39	0x84	-0.05469993
40	0x8d	0.015628552
41	0x88	-0.023442827
42	0xac	0.25787112
43	0x8f	0.031257104
44	0x7d	-0.10939986
45	0x91	0.046885654
46	0x93	0.06251421
47	0x8b	0.0
48	0x8b	0.0
49	0x97	0.09377131
50	0x8b	0.0
51	0x8c	0.007814276
52	0x82	-0.07032848
53	0x89	-0.015628552
54	0x7f	-0.09377131
55	0x82	-0.07032848
56	0x8a	-0.007814276
57	0x73	-0.18754262
58	0x88	-0.023442827
59	0x89	-0.015628552
60	0x8e	0.023442827
61	0x71	-0.20317118
62	0x8c	0.007814276
63	0x8a	-0.007814276
64	0x84	-0.05469993
65	0x8c	0.007814276
66	0x8b	0.0
67	0x8b	0.0
68	0x8d	0.015628552
69	0x89	-0.015628552
70	0x8c	0.007814276
71	0x8e	0.023442827
72	0x8b	0.0
73	0x8f	0.031257104
74	0x90	0.03907138
75	0x8b	0.0
76	0x88	-0.023442827
77	0x8f	0.031257104
78	0xa0	0.1640998
79	0x94	0.07032848
80	0x9a	0.11721414
81	0x91	0.046885654
82	0x81	-0.07814276
83	0x8b	0.0
84	0x87	-0.031257104
85	0x8d	0.015628552
86	0x96	0.085957035
87	0x8c	0.007814276
88	0x9d	0.14065696
89	0x8a	-0.007814276
90	0x7e	-0.10158559
91	0x8b	0.0
92	0x79	-0.14065696
93	0x91	0.046885654
94	0x85	-0.046885654
95	0x84	-0.05469993
96	0x87	-0.031257104
97	0x98	0.10158559
98	0x8c	0.007814276
99	0x97	0.09377131
100	0x9b	0.12502842
101	0x8a	-0.007814276
102	0x91	0.046885654
103	0x9a	0.11721414
104	0xa4	0.1953569
105	0x9b	0.12502842
106	0xa2	0.17972834
107	0x8a	-0.007814276
108	0x84	-0.05469993
109	0x8b	0.0
110	0x8e	0.023442827
111	0x8c	0.007814276
112	0xa0	0.1640998
113	0x87	-0.031257104
114	0x8c	0.007814276
115	0x94	0.07032848
116	0x91	0.046885654
117	0x8f	0.031257104
118	0x81	-0.07814276
119	0x6a	-0.25787112
120	0x8a	-0.007814276
121	0x95	0.07814276
122	0x88	-0.023442827
123	0x83	-0.06251421
124	0x91	0.046885654
125	0x9d	0.14065696
126	0x8d	0.015628552
127	0x96	0.085957035
128	0x83	-0.06251421
129	0x85	-0.046885654
130	0x8b	0.0
131	0x8a	-0.007814276
132	0x87	-0.031257104
133	0x8b	0.0
134	0x8a	-0.007814276
135	0x8c	0.007814276
136	0x84	-0.05469993
137	0x8f	0.031257104
138	0x88	-0.023442827
139	0x8b	0.0
140	0x8b	0.0
141	0x8d	0.015628552
142	0x86	-0.03907138
143	0x8c	0.007814276
144	0x85	-0.046885654
145	0x86	-0.03907138
146	0x8d	0.015628552
147	0x95	0.07814276
148	0x8d	0.015628552
149	0x87	-0.031257104
150	0x8c	0.007814276
151	0x82	-0.07032848
152	0x89	-0.015628552
153	0x8b	0.0
154	0x8b	0.0
155	0xa0	0.1640998
156	0x92	0.05469993
157	0x86	-0.03907138
158	0x8a	-0.007814276
159	0x8a	-0.007814276
160	0x89	-0.015628552
161	0x8d	0.015628552
162	0x87	-0.031257104
163	0x8d	0.015628552
164	0x99	0.10939986
165	0x8e	0.023442827
166	0x8c	0.007814276
167	0x97	0.09377131
168	0x7e	-0.10158559
169	0x8b	0.0
170	0x8a	-0.007814276
171	0x89	-0.015628552
172	0x90	0.03907138
173	0x89	-0.015628552
174	0x89	-0.015628552
175	0x9f	0.15628552
176	0x85	-0.046885654
177	0x8a	-0.007814276
178	0x84	-0.05469993
179	0x87	-0.031257104
180	0x89	-0.015628552
181	0x8b	0.0
182	0x97	0.09377131
183	0x86	-0.03907138
184	0x85	-0.046885654
185	0x8b	0.0
186	0x8f	0.031257104
187	0x99	0.10939986
188	0x8b	0.0
189	0x99	0.10939986
190	0x89	-0.015628552
191	0x86	-0.03907138
192	0x8c	0.007814276
193	0x8e	0.023442827
194	0x8c	0.007814276
195	0x5f	-0.34382814
196	0x85	-0.046885654
197	0x98	0.10158559
198	0x88	-0.023442827
199	0x8d	0.015628552
200	0x7c	-0.11721414
201	0x86	-0.03907138
202	0x87	-0.031257104
203	0x8c	0.007814276
204	0x8c	0.007814276
205	0x90	0.03907138
206	0x8f	0.031257104
207	0x99	0.10939986
208	0x8d	0.015628552
209	0x91	0.046885654
210	0x8f	0.031257104
211	0x85	-0.046885654
212	0x7d	-0.10939986
213	0x88	-0.023442827
214	0x9b	0.12502842
215	0x80	-0.085957035
216	0x8d	0.015628552
217	0x8b	0.0
218	0x8b	0.0
219	0xb4	0.3203853
220	0x8c	0.007814276
221	0x8d	0.015628552
222	0x86	-0.03907138
223	0x6a	-0.25787112
224	0x75	-0.17191407
225	0x8f	0.031257104
226	0x89	-0.015628552
227	0x95	0.07814276
228	0xc7	0.46885657
229	0x8a	-0.007814276
230	0x8e	0.023442827
231	0x80	-0.085957035
232	0x8c	0.007814276
233	0x78	-0.14847125
234	0x93	0.06251421
235	0x8b	0.0
236	0x94	0.07032848
237	0x8a	-0.007814276
238	0x89	-0.015628552
239	0x98	0.10158559
240	0x8b	0.0
241	0x8e	0.023442827
242	0x86	-0.03907138
243	0x90	0.03907138
244	0x87	-0.031257104
245	0x89	-0.015628552
246	0x7c	-0.11721414
247	0x26	-0.78924185
248	0x83	-0.06251421
249	0x8d	0.015628552
250	0x86	-0.03907138
251	0x87	-0.031257104
252	0x89	-0.015628552
253	0x75	-0.17191407
254	0x8c	0.007814276
255	0x91	0.046885654

sconv4/depthwise_weights u1 [1, 3, 3, 64] scale=0.027643202 zero_point=124
0	0x8b	0.41464803
1	0x7f	0.082929604
2	0x9c	0.88458246
3	0x66	-0.6081504
4	0x7c	0.0
5	0x84	0.22114561
6	0x78	-0.11057281
7	0x7d	0.027643202
8	0x7d	0.027643202
9	0x85	0.24878882
10	0x7d	0.027643202
11	0x7b	-0.027643202
12	0x7e	0.055286404
13	0x7c	0.0
14	0x76	-0.16585921
15	0x81	0.138216
16	0x67	-0.5805072
17	0x6a	-0.49757764
18	0x60	-0.77400964
19	0x6b	-0.46993443
20	0x87	0.3040752
21	0x86	0.276432
22	0x7b	-0.027643202
23	0x7e	0.055286404
24	0x74	-0.22114561
25	0x81	0.138216
26	0x77	-0.138216
27	0x83	0.19350241
28	0x79	-0.082929604
29	0x7d	0.027643202
30	0x87	0.3040752
31	0x7e	0.055286404
32	0x79	-0.082929604
33	0x72	-0.276432
34	0x85	0.24878882
35	0x7c	0.0
36	0x73	-0.24878882
37	0x78	-0.11057281
38	0x7a	-0.055286404
39	0x76	-0.16585921
40	0x93	0.6357936
41	0x8f	0.5252208
42	0x7d	0.027643202
43	0x80	0.11057281
44	0x68	-0.552864
45	0x71	-0.3040752
46	0x83	0.19350241
47	0x7d	0.027643202
48	0x80	0.11057281
49	0x5d	-0.85693926
50	0x7b	-0.027643202
51	0x7b	-0.027643202
52	0x75	-0.19350241
53	0x47	-1.4650897
54	0x92	0.6081504
55	0x86	0.276432
56	0x82	0.16585921
57	0x7f	0.082929604
58	0x81	0.138216
59	0x5a	-0.93986887
60	0x74	-0.22114561
61	0x7c	0.0
62	0x69	-0.5252208
63	0x99	0.80165285
64	0x7a	-0.055286404
65	0x65	-0.6357936
66	0x85	0.24878882
67	0xbc	1.7691649
68	0x81	0.138216
69	0x7a	-0.055286404
70	0x7c	0.0
71	0x79	-0.082929604
72	0x49	-1.4098033
73	0x95	0.69108003
74	0x7e	0.055286404
75	0x7c	0.0
76	0x83	0.19350241
77	0x7e	0.055286404
78	0x71	-0.3040752
79	0x85	0.24878882
80	0x86	0.276432
81	0x86	0.276432
82	0x75	-0.19350241
83	0x77	-0.138216
84	0x99	0.80165285
85	0x7a	-0.055286404
86	0x7c	0.0
87	0x7f	0.082929604
88	0x75	-0.19350241
89	0x75	-0.19350241
90	0x78	-0.11057281
91	0x81	0.138216
92	0x7b	-0.027643202
93	0x7b	-0.027643202
94	0xab	1.2992305
95	0x7e	0.055286404
96	0x78	-0.11057281
97	0x6f	-0.35936162
98	0x83	0.19350241
99	0x9e	0.93986887
100	0x7d	0.027643202
101	0x77	-0.138216
102	0x7d	0.027643202
103	0x79	-0.082929604
104	0x4b	-1.3545169
105	0x92	0.6081504
106	0x74	-0.22114561
107	0x79	-0.082929604
108	0x6e	-0.38700482
109	0x62	-0.71872324
110	0x83	0.19350241
111	0x7d	0.027643202
112	0x97	0.74636644
113	0x68	-0.552864
114	0x79	-0.082929604
115	0x84	0.22114561
116	0x79	-0.082929604
117	0x8a	0.38700482
118	0x70	-0.33171842
119	0x87	0.3040752
120	0x86	0.276432
121	0x81	0.138216
122	0x92	0.6081504
123	0x78	-0.11057281
124	0x7d	0.027643202
125	0x53	-1.1333712
126	0x87	0.3040752
127	0x92	0.6081504
128	0x86	0.276432
129	0x67	-0.5805072
130	0x4e	-1.2715873
131	0x64	-0.66343683
132	0x7b	-0.027643202
133	0x84	0.22114561
134	0x75	-0.19350241
135	0x7e	0.055286404
136	0x7c	0.0
137	0x86	0.276432
138	0x7c	0.0
139	0x7b	-0.027643202
140	0x7f	0.082929604
141	0x7a	-0.055286404
142	0x74	-0.22114561
143	0x7f	0.082929604
144	0x8e	0.49757764
145	0x97	0.74636644
146	0xa3	1.0780848
147	0x8d	0.46993443
148	0x87	0.3040752
149	0x81	0.138216
150	0x7b	-0.027643202
151	0x7f	0.082929604
152	0x75	-0.19350241
153	0x82	0.16585921
154	0x77	-0.138216
155	0x85	0.24878882
156	0x7a	-0.055286404
157	0x7a	-0.055286404
158	0x88	0.33171842
159	0x7d	0.027643202
160	0x7b	-0.027643202
161	0x71	-0.3040752
162	0x86	0.276432
163	0x7a	-0.055286404
164	0x72	-0.276432
165	0x7a	-0.055286404
166	0x7b	-0.027643202
167	0x75	-0.19350241
168	0x72	-0.276432
169	0x86	0.276432
170	0x7c	0.0
171	0x82	0.16585921
172	0x68	-0.552864
173	0x6b	-0.46993443
174	0x82	0.16585921
175	0x80	0.11057281
176	0x7e	0.055286404
177	0x5b	-0.91222566
178	0x7d	0.027643202
179	0x7c	0.0
180	0x76	-0.16585921
181	0x47	-1.4650897
182	0x78	-0.11057281
183	0x87	0.3040752
184	0x73	-0.24878882
185	0x7e	0.055286404
186	0x82	0.16585921
187	0x63	-0.69108003
188	0x76	-0.16585921
189	0x79	-0.082929604
190	0x6b	-0.46993443
191	0x69	-0.5252208
192	0x8e	0.49757764
193	0x49	-1.4098033
194	0xc0	1.8797377
195	0x7d	0.027643202
196	0x80	0.11057281
197	0x7c	0.0
198	0x77	-0.138216
199	0x7f	0.082929604
200	0x75	-0.19350241
201	0x80	0.11057281
202	0x7b	-0.027643202
203	0x78	-0.11057281
204	0x80	0.11057281
205	0x8d	0.46993443
206	0x75	-0.19350241
207	0x86	0.276432
208	0x68	-0.552864
209	0x8c	0.44229123
210	0x8b	0.41464803
211	0x53	-1.1333712
212	0x9d	0.91222566
213	0x7f	0.082929604
214	0x7f	0.082929604
215	0x82	0.16585921
216	0x74	-0.22114561
217	0x85	0.24878882
218	0x71	-0.3040752
219	0x85	0.24878882
220	0x75	-0.19350241
221	0x8b	0.41464803
222	0x80	0.11057281
223	0x95	0.69108003
224	0x79	-0.082929604
225	0x75	-0.19350241
226	0x83	0.19350241
227	0x82	0.16585921
228	0x73	-0.24878882
229	0x6d	-0.41464803
230	0x7a	-0.055286404
231	0x7c	0.0
232	0xd0	2.3220289
233	0x6a	-0.49757764
234	0x83	0.19350241
235	0x83	0.19350241
236	0x79	-0.082929604
237	0x84	0.22114561
238	0x84	0.22114561
239	0x84	0.22114561
240	0x83	0.19350241
241	0x89	0.35936162
242	0x84	0.22114561
243	0x81	0.138216
244	0x74	-0.22114561
245	0x7d	0.027643202
246	0xff	3.6212595
247	0x82	0.16585921
248	0x81	0.138216
249	0x83	0.19350241
250	0x6c	-0.44229123
251	0x51	-1.1886576
252	0x6d	-0.41464803
253	0x79	-0.082929604
254	0x6e	-0.38700482
255	0x7d	0.027643202

sconv4_pointwise/weights u1 [64, 1, 1, 64] scale=0.008297758 zero_point=120
0	0x63	-0.17425293
1	0x77	-0.008297758
2	0x7e	0.04978655
3	0xac	0.43148342
4	0x75	-0.024893275
5	0x82	0.08297758
6	0x56	-0.28212377
7	0x6c	-0.0995731
8	0x7f	0.05808431
9	0x7e	0.04978655
10	0x82	0.08297758
11	0x96	0.24893275
12	0x5a	-0.24893275
13	0x84	0.0995731
14	0x65	-0.1576574
15	0x6b	-0.107870854
16	0x9e	0.3153148
17	0x6c	-0.0995731
18	0x81	0.07467982
19	0x7f	0.05808431
20	0x6b	-0.107870854
21	0x7a	0.016595516
22	0x7e	0.04978655
23	0x60	-0.1991462
24	0x67	-0.14106189
25	0x73	-0.04148879
26	0x6e	-0.08297758
27	0x82	0.08297758
28	0x6e	-0.08297758
29	0x82	0.08297758
30	0x66	-0.14935964
31	0x7f	0.05808431
32	0xa5	0.3733991
33	0x80	0.066382065
34	0x5a	-0.24893275
35	0x76	-0.016595516
36	0x8b	0.1576574
37	0x6e	-0.08297758
38	0x75	-0.024893275
39	0x6d	-0.09127534
40	0x6e	-0.08297758
41	0x7f	0.05808431
42	0x67	-0.14106189
43	0x72	-0.04978655
44	0x74	-0.033191033
45	0x69	-0.124466375
46	0x60	-0.1991462
47	0x5f	-0.20744395
48	0x78	0.0
49	0x70	-0.066382065
50	0x68	-0.13276413
51	0x8b	0.1576574
52	0x7c	0.033191033
53	0x80	0.066382065
54	0x7c	0.033191033
55	0x77	-0.008297758
56	0x76	-0.016595516
57	0x81	0.07467982
58	0x91	0.20744395
59	0x77	-0.008297758
60	0x7f	0.05808431
61	0x71	-0.05808431
62	0x6d	-0.09127534
63	0x88	0.13276413
64	0x83	0.09127534
65	0x76	-0.016595516
66	0x77	-0.008297758
67	0x84	0.0995731
68	0x72	-0.04978655
69	0x58	-0.26552826
70	0x7f	0.05808431
71	0x63	-0.17425293
72	0x78	0.0
73	0x7a	0.016595516
74	0x71	-0.05808431
75	0x80	0.066382065
76	0x75	-0.024893275
77	0x6a	-0.11616862
78	0x8b	0.1576574
79	0x7c	0.033191033
80	0x76	-0.016595516
81	0x6a	-0.11616862
82	0x7a	0.016595516
83	0x71	-0.05808431
84	0x73	-0.04148879
85	0x6c	-0.0995731
86	0x7b	0.024893275
87	0xdf	0.8546691
88	0x79	0.008297758
89	0x3c	-0.4978655
90	0x73	-0.04148879
91	0x5f	-0.20744395
92	0x75	-0.024893275
93	0x76	-0.016595516
94	0x64	-0.16595516
95	0x71	-0.05808431
96	0x8e	0.18255068
97	0x74	-0.033191033
98	0x70	-0.066382065
99	0x76	-0.016595516
100	0x79	0.008297758
101	0x75	-0.024893275
102	0x78	0.0
103	0x8a	0.14935964
104	0x7a	0.016595516
105	0x86	0.11616862
106	0x7a	0.016595516
107	0x7b	0.024893275
108	0x7a	0.016595516
109	0x6e	-0.08297758
110	0x94	0.23233724
111	0x79	0.008297758
112	0x7e	0.04978655
113	0x7a	0.016595516
114	0x71	-0.05808431
115	0x75	-0.024893275
116	0x7a	0.016595516
117	0x6d	-0.09127534
118	0x75	-0.024893275
119	0x83	0.09127534
120	0x6c	-0.0995731
121	0x6b	-0.107870854
122	0x65	-0.1576574
123	0x81	0.07467982
124	0x6c	-0.0995731
125	0x70	-0.066382065
126	0x84	0.0995731
127	0x6d	-0.09127534
128	0x72	-0.04978655
129	0x7a	0.016595516
130	0x7a	0.016595516
131	0x7e	0.04978655
132	0x8c	0.16595516
133	0x63	-0.17425293
134	0x77	-0.008297758
135	0x9f	0.32361257
136	0x87	0.124466375
137	0x88	0.13276413
138	0x74	-0.033191033
139	0x81	0.07467982
140	0x2c	-0.6306296
141	0x64	-0.16595516
142	0x93	0.22403947
143	0x71	-0.05808431
144	0x78	0.0
145	0x6b	-0.107870854
146	0x7c	0.033191033
147	0x7b	0.024893275
148	0xa7	0.38999462
149	0x75	-0.024893275
150	0x68	-0.13276413
151	0x65	-0.1576574
152	0x84	0.0995731
153	0x78	0.0
154	0x77	-0.008297758
155	0x56	-0.28212377
156	0x62	-0.18255068
157	0x6c	-0.0995731
158	0x78	0.0
159	0x76	-0.016595516
160	0x98	0.26552826
161	0x9a	0.28212377
162	0x54	-0.2987193
163	0x9d	0.30701706
164	0x79	0.008297758
165	0x69	-0.124466375
166	0x68	-0.13276413
167	0x77	-0.008297758
168	0x74	-0.033191033
169	0x9b	0.29042155
170	0x8b	0.1576574
171	0x83	0.09127534
172	0x79	0.008297758
173	0xa2	0.34850585
174	0x62	-0.18255068
175	0x87	0.124466375
176	0x98	0.26552826
177	0x86	0.11616862
178	0x6a	-0.11616862
179	0x7a	0.016595516
180	0x6b	-0.107870854
181	0x70	-0.066382065
182	0x75	-0.024893275
183	0x77	-0.008297758
184	0x67	-0.14106189
185	0x7e	0.04978655
186	0x67	-0.14106189
187	0x73	-0.04148879
188	0x6a	-0.11616862
189	0x80	0.066382065
190	0x92	0.21574171
191	0x59	-0.2572305
192	0x89	0.14106189
193	0x56	-0.28212377
194	0x7d	0.04148879
195	0x7b	0.024893275
196	0x80	0.066382065
197	0x6a	-0.11616862
198	0x85	0.107870854
199	0x7e	0.04978655
200	0x7e	0.04978655
201	0x74	-0.033191033
202	0x7d	0.04148879
203	0x84	0.0995731
204	0x6f	-0.07467982
205	0x69	-0.124466375
206	0x79	0.008297758
207	0x6c	-0.0995731
208	0x7c	0.033191033
209	0x84	0.0995731
210	0x81	0.07467982
211	0x73	-0.04148879
212	0x7c	0.033191033
213	0x6c	-0.0995731
214	0x7b	0.024893275
215	0x91	0.20744395
216	0x71	-0.05808431
217	0x80	0.066382065
218	0x6c	-0.0995731
219	0x71	-0.05808431
220	0x6f	-0.07467982
221	0x7e	0.04978655
222	0x78	0.0
223	0x67	-0.14106189
224	0x8d	0.17425293
225	0x75	-0.024893275
226	0x76	-0.016595516
227	0x77	-0.008297758
228	0x77	-0.008297758
229	0x7c	0.033191033
230	0x76	-0.016595516
231	0x79	0.008297758
232	0x86	0.11616862
233	0x87	0.124466375
234	0x7c	0.033191033
235	0x7a	0.016595516
236	0x79	0.008297758
237	0x7e	0.04978655
238	0x74	-0.033191033
239	0x76	-0.016595516
240	0x82	0.08297758
241	0x77	-0.008297758
242	0x72	-0.04978655
243	0x80	0.066382065
244	0x6c	-0.0995731
245	0x7a	0.016595516
246	0x7e	0.04978655
247	0x7b	0.024893275
248	0x6d	-0.09127534
249	0x76	-0.016595516
250	0x95	0.240635
251	0x70	-0.066382065
252	0x74	-0.033191033
253	0x77	-0.008297758
254	0x84	0.0995731
255	0x85	0.107870854

sconv5/depthwise_weights u1 [1, 3, 3, 64] scale=0.023157451 zero_point=114
0	0x71	-0.023157451
1	0x6e	-0.092629805
2	0x74	0.046314903
3	0x19	-2.0610132
4	0x79	0.16210216
5	0x6f	-0.06947236
6	0x74	0.046314903
7	0x6c	-0.13894472
8	0x7f	0.30104688
9	0x47	-0.9957704
10	0x7f	0.30104688
11	0x71	-0.023157451
12	0x3b	-1.2736598
13	0x74	0.046314903
14	0x7e	0.27788943
15	0x57	-0.6252512
16	0x7b	0.20841706
17	0x7a	0.18525961
18	0x79	0.16210216
19	0x71	-0.023157451
20	0x72	0.0
21	0x7a	0.18525961
22	0x86	0.463149
23	0x7f	0.30104688
24	0x6d	-0.11578725
25	0x73	0.023157451
26	0x72	0.0
27	0x60	-0.41683412
28	0x75	0.06947236
29	0x6d	-0.11578725
30	0x79	0.16210216
31	0x6d	-0.11578725
32	0x6d	-0.11578725
33	0x64	-0.32420433
34	0x7c	0.2315745
35	0x77	0.11578725
36	0x75	0.06947236
37	0x77	0.11578725
38	0x84	0.41683412
39	0x8a	0.55577886
40	0x7b	0.20841706
41	0x7a	0.18525961
42	0x6e	-0.092629805
43	0x79	0.16210216
44	0x65	-0.30104688
45	0x7c	0.2315745
46	0x73	0.023157451
47	0x6d	-0.11578725
48	0x7d	0.25473195
49	0x7b	0.20841706
50	0x81	0.34736177
51	0x88	0.5094639
52	0x26	-1.7599663
53	0x68	-0.2315745
54	0x6c	-0.13894472
55	0x71	-0.023157451
56	0x6c	-0.13894472
57	0x72	0.0
58	0x75	0.06947236
59	0x6e	-0.092629805
60	0x78	0.13894472
61	0x6a	-0.18525961
62	0x79	0.16210216
63	0x88	0.5094639
64	0x6f	-0.06947236
65	0x6f	-0.06947236
66	0x73	0.023157451
67	0x54	-0.69472355
68	0x6c	-0.13894472
69	0x65	-0.30104688
70	0x75	0.06947236
71	0x6a	-0.18525961
72	0x75	0.06947236
73	0x5c	-0.5094639
74	0x87	0.4863065
75	0x7e	0.27788943
76	0x6a	-0.18525961
77	0x71	-0.023157451
78	0x8a	0.55577886
79	0x57	-0.6252512
80	0x78	0.13894472
81	0x6e	-0.092629805
82	0x7a	0.18525961
83	0x75	0.06947236
84	0x6f	-0.06947236
85	0x79	0.16210216
86	0x84	0.41683412
87	0x89	0.5326214
88	0x7c	0.2315745
89	0x72	0.0
90	0x71	-0.023157451
91	0x68	-0.2315745
92	0x7a	0.18525961
93	0x6c	-0.13894472
94	0x73	0.023157451
95	0x71	-0.023157451
96	0x6b	-0.16210216
97	0x7c	0.2315745
98	0x7b	0.20841706
99	0x78	0.13894472
100	0x74	0.046314903
101	0x82	0.37051922
102	0x7a	0.18525961
103	0x7d	0.25473195
104	0x72	0.0
105	0x95	0.8105108
106	0x59	-0.5789363
107	0x7c	0.2315745
108	0xae	1.3894471
109	0x7d	0.25473195
110	0x70	-0.046314903
111	0x6b	-0.16210216
112	0x7b	0.20841706
113	0x75	0.06947236
114	0x89	0.5326214
115	0x6f	-0.06947236
116	0x62	-0.37051922
117	0x63	-0.34736177
118	0x74	0.046314903
119	0x73	0.023157451
120	0x76	0.092629805
121	0x75	0.06947236
122	0x7a	0.18525961
123	0x7d	0.25473195
124	0x72	0.0
125	0x6e	-0.092629805
126	0x77	0.11578725
127	0x95	0.8105108
128	0x70	-0.046314903
129	0x6e	-0.092629805
130	0x72	0.0
131	0x4f	-0.8105108
132	0x73	0.023157451
133	0x7a	0.18525961
134	0x71	-0.023157451
135	0x74	0.046314903
136	0x73	0.023157451
137	0x4e	-0.83366823
138	0x81	0.34736177
139	0x77	0.11578725
140	0x43	-1.0884002
141	0x7c	0.2315745
142	0x7e	0.27788943
143	0x5d	-0.4863065
144	0x7b	0.20841706
145	0x57	-0.6252512
146	0x7b	0.20841706
147	0x72	0.0
148	0x72	0.0
149	0x73	0.023157451
150	0x82	0.37051922
151	0x89	0.5326214
152	0x88	0.5094639
153	0x74	0.046314903
154	0x6c	-0.13894472
155	0x61	-0.39367667
156	0x7a	0.18525961
157	0x6e	-0.092629805
158	0x77	0.11578725
159	0x6f	-0.06947236
160	0x74	0.046314903
161	0x68	-0.2315745
162	0x83	0.39367667
163	0x76	0.092629805
164	0x74	0.046314903
165	0x6e	-0.092629805
166	0x80	0.32420433
167	0x8d	0.6252512
168	0x7a	0.18525961
169	0x71	-0.023157451
170	0x62	-0.37051922
171	0x77	0.11578725
172	0x6c	-0.13894472
173	0x7b	0.20841706
174	0x71	-0.023157451
175	0x6d	-0.11578725
176	0x79	0.16210216
177	0x79	0.16210216
178	0x83	0.39367667
179	0x55	-0.67156607
180	0x1f	-1.9220685
181	0x64	-0.32420433
182	0x71	-0.023157451
183	0x72	0.0
184	0x78	0.13894472
185	0x74	0.046314903
186	0x77	0.11578725
187	0x7b	0.20841706
188	0x77	0.11578725
189	0x6d	-0.11578725
190	0x78	0.13894472
191	0x84	0.41683412
192	0x7d	0.25473195
193	0x6e	-0.092629805
194	0x74	0.046314903
195	0x67	-0.25473195
196	0x79	0.16210216
197	0x8d	0.6252512
198	0x71	-0.023157451
199	0x84	0.41683412
200	0x85	0.43999156
201	0x51	-0.7641959
202	0x7b	0.20841706
203	0x50	-0.78735334
204	0x6e	-0.092629805
205	0x86	0.463149
206	0x75	0.06947236
207	0x66	-0.27788943
208	0x7a	0.18525961
209	0x6d	-0.11578725
210	0x7e	0.27788943
211	0x73	0.023157451
212	0x7a	0.18525961
213	0xac	1.3431321
214	0x51	-0.7641959
215	0x5b	-0.5326214
216	0x70	-0.046314903
217	0x73	0.023157451
218	0x70	-0.046314903
219	0x6d	-0.11578725
220	0x84	0.41683412
221	0x5a	-0.55577886
222	0x83	0.39367667
223	0x55	-0.67156607
224	0x72	0.0
225	0x47	-0.9957704
226	0x7c	0.2315745
227	0x7e	0.27788943
228	0x77	0.11578725
229	0x82	0.37051922
230	0x77	0.11578725
231	0x73	0.023157451
232	0x80	0.32420433
233	0x6e	-0.092629805
234	0x66	-0.27788943
235	0x85	0.43999156
236	0xb7	1.5978642
237	0x77	0.11578725
238	0x77	0.11578725
239	0x6f	-0.06947236
240	0x8d	0.6252512
241	0x7d	0.25473195
242	0x72	0.0
243	0x64	-0.32420433
244	0x7c	0.2315745
245	0x5e	-0.463149
246	0x52	-0.74103844
247	0x78	0.13894472
248	0x69	-0.20841706
249	0x6f	-0.06947236
250	0x7a	0.18525961
251	0x70	-0.046314903
252	0x7c	0.2315745
253	0x6d	-0.11578725
254	0x7c	0.2315745
255	0x6a	-0.18525961
